…
Loading MNIST data for training
Embedding images into 64 x 64 canvases
Before enlarging: x_train.shape: (60000, 28, 28, 1)
After englarging: x_train.shape: (60000, 64, 64, 1)
Saving training object positions: /Users/sekunder/python/BMM2017/model/obj_pos_train_20170829133103
Saving testing object positions:  /Users/sekunder/python/BMM2017/model/obj_pos_test_20170829133103
--- MODEL SUMMARY ---
_________________________________________________________________
Layer (type)                 Output Shape              Param #   
=================================================================
conv2d_1 (Conv2D)            (None, 64, 64, 16)        160       
_________________________________________________________________
max_pooling2d_1 (MaxPooling2 (None, 32, 32, 16)        0         
_________________________________________________________________
conv2d_2 (Conv2D)            (None, 32, 32, 32)        4640      
_________________________________________________________________
max_pooling2d_2 (MaxPooling2 (None, 16, 16, 32)        0         
_________________________________________________________________
conv2d_3 (Conv2D)            (None, 16, 16, 64)        18496     
_________________________________________________________________
max_pooling2d_3 (MaxPooling2 (None, 8, 8, 64)          0         
_________________________________________________________________
flatten_1 (Flatten)          (None, 4096)              0         
_________________________________________________________________
dense_1 (Dense)              (None, 1024)              4195328   
_________________________________________________________________
dense_2 (Dense)              (None, 10)                10250     
_________________________________________________________________
activation_1 (Activation)    (None, 10)                0         
=================================================================
Total params: 4,228,874
Trainable params: 4,228,874
Non-trainable params: 0
_________________________________________________________________
None
Training network [batch size: 128, epochs: 10]
Train on 60000 samples, validate on 10000 samples
Epoch 1/10
434s - loss: 1.0405 - acc: 0.6474 - val_loss: 0.2712 - val_acc: 0.9141
…
Loading MNIST data for training
Embedding images into 64 x 64 canvases
Before enlarging: x_train.shape: (60000, 28, 28, 1)
After englarging: x_train.shape: (60000, 64, 64, 1)
Saving training object positions: /Users/sekunder/python/BMM2017/model/obj_pos_train_20170829151236
Saving testing object positions:  /Users/sekunder/python/BMM2017/model/obj_pos_test_20170829151236
--- MODEL SUMMARY ---
_________________________________________________________________
Layer (type)                 Output Shape              Param #   
=================================================================
conv2d_1 (Conv2D)            (None, 64, 64, 16)        160       
_________________________________________________________________
max_pooling2d_1 (MaxPooling2 (None, 32, 32, 16)        0         
_________________________________________________________________
conv2d_2 (Conv2D)            (None, 32, 32, 32)        4640      
_________________________________________________________________
max_pooling2d_2 (MaxPooling2 (None, 16, 16, 32)        0         
_________________________________________________________________
conv2d_3 (Conv2D)            (None, 16, 16, 64)        18496     
_________________________________________________________________
max_pooling2d_3 (MaxPooling2 (None, 8, 8, 64)          0         
_________________________________________________________________
dropout_1 (Dropout)          (None, 8, 8, 64)          0         
_________________________________________________________________
flatten_1 (Flatten)          (None, 4096)              0         
_________________________________________________________________
dense_1 (Dense)              (None, 1024)              4195328   
_________________________________________________________________
dense_2 (Dense)              (None, 10)                10250     
_________________________________________________________________
activation_1 (Activation)    (None, 10)                0         
=================================================================
Total params: 4,228,874
Trainable params: 4,228,874
Non-trainable params: 0
_________________________________________________________________
None
Training network [batch size: 128, epochs: 10]
Train on 60000 samples, validate on 10000 samples
Epoch 1/10
428s - loss: 1.0451 - acc: 0.6419 - val_loss: 0.2539 - val_acc: 0.9237
…
